…
Model 5 validation MSE: 1.277694
Model weights in ensemble:
  Model 1 weight: 0.2945
  Model 2 weight: 0.1910
  Model 3 weight: 0.1795
  Model 4 weight: 0.1757
  Model 5 weight: 0.1593

Weighted Ensemble Model Metrics:
Mean Absolute Error: 0.6663
Mean Squared Error: 0.6791
Root Mean Squared Error: 0.8241
R-squared: 0.4928
$best_single_model
$best_single_model$model
Model: "functional_31"
┏━━━━━━━━━━━━━━━━━━━┳━━━━━━━━━━━━━━━━━┳━━━━━━━━━━┳━━━━━━━━━━━━━━━━━┓
┃ Layer (type)      ┃ Output Shape    ┃  Param # ┃ Connected to    ┃
┡━━━━━━━━━━━━━━━━━━━╇━━━━━━━━━━━━━━━━━╇━━━━━━━━━━╇━━━━━━━━━━━━━━━━━┩
│ user_input        │ (None, 1)       │        0 │ -               │
│ (InputLayer)      │                 │          │                 │
├───────────────────┼─────────────────┼──────────┼─────────────────┤
│ recipe_input      │ (None, 1)       │        0 │ -               │
│ (InputLayer)      │                 │          │                 │
├───────────────────┼─────────────────┼──────────┼─────────────────┤
│ features_input    │ (None, 16)      │        0 │ -               │
│ (InputLayer)      │                 │          │                 │
├───────────────────┼─────────────────┼──────────┼─────────────────┤
│ user_embedding    │ (None, 1, 16)   │   96,464 │ user_input[0][… │
│ (Embedding)       │                 │          │                 │
├───────────────────┼─────────────────┼──────────┼─────────────────┤
│ recipe_embedding  │ (None, 1, 16)   │   76,800 │ recipe_input[0… │
│ (Embedding)       │                 │          │                 │
├───────────────────┼─────────────────┼──────────┼─────────────────┤
│ dense_124 (Dense) │ (None, 256)     │    4,352 │ features_input… │
├───────────────────┼─────────────────┼──────────┼─────────────────┤
│ flatten_62        │ (None, 16)      │        0 │ user_embedding… │
│ (Flatten)         │                 │          │                 │
├───────────────────┼─────────────────┼──────────┼─────────────────┤
│ flatten_63        │ (None, 16)      │        0 │ recipe_embeddi… │
│ (Flatten)         │                 │          │                 │
├───────────────────┼─────────────────┼──────────┼─────────────────┤
│ dropout_93        │ (None, 256)     │        0 │ dense_124[0][0] │
│ (Dropout)         │                 │          │                 │
├───────────────────┼─────────────────┼──────────┼─────────────────┤
│ concatenate_31    │ (None, 288)     │        0 │ flatten_62[0][… │
│ (Concatenate)     │                 │          │ flatten_63[0][… │
│                   │                 │          │ dropout_93[0][… │
├───────────────────┼─────────────────┼──────────┼─────────────────┤
│ dense_126 (Dense) │ (None, 256)     │   73,984 │ concatenate_31… │
├───────────────────┼─────────────────┼──────────┼─────────────────┤
│ dropout_95        │ (None, 256)     │        0 │ dense_126[0][0] │
│ (Dropout)         │                 │          │                 │
├───────────────────┼─────────────────┼──────────┼─────────────────┤
│ dense_125 (Dense) │ (None, 32)      │    8,224 │ dropout_95[0][… │
├───────────────────┼─────────────────┼──────────┼─────────────────┤
│ dropout_94        │ (None, 32)      │        0 │ dense_125[0][0] │
│ (Dropout)         │                 │          │                 │
├───────────────────┼─────────────────┼──────────┼─────────────────┤
│ dense_127 (Dense) │ (None, 1)       │       33 │ dropout_94[0][… │
└───────────────────┴─────────────────┴──────────┴─────────────────┘
 Total params: 779,573 (2.97 MB)
 Trainable params: 259,857 (1015.07 KB)
 Non-trainable params: 0 (0.00 B)
 Optimizer params: 519,716 (1.98 MB)

$best_single_model$params
$best_single_model$params$embedding_dim
[1] 16

$best_single_model$params$units1
[1] 256

$best_single_model$params$dropout1
[1] 0.4

$best_single_model$params$units2
…
